PerfilWhatsapp/Default/optimization_guide_prediction_model_downloads/12b57467-17f8-4ef2-9f05-275e5af62675/model.tflite (tflite, 410364 bytes, 166 tensors)

context_transformer_0/bottleneck_input/norm/add f4 [32]
000000 34 c5 a9 3d ba e9 cd bc c8 a1 c4 3c fa 74 91 bc
       0.08289567 -0.025135864 0.024002925 -0.017755974
000010 18 dc 51 3c e6 7c 56 3e 8a c7 4a 3c f7 14 80 3d
       0.012808822 0.20946082 0.012376675 0.06253999
000020 5a 05 ec 3c fd dc d6 bc a0 a8 89 3c 26 c2 28 3c
       0.028811146 -0.026228422 0.01680404 0.010300195
000030 c7 00 a3 3c 74 12 03 3e fa 6a df 3a 34 91 b4 bb
       0.019897832 0.12800008 0.0017045431 -0.0055104736
000040 7f 24 7c 3d 4c c7 4f be 8d f6 b5 3c 3f 8c 5f 3d
       0.061558243 -0.2029087 0.022212291 0.05457711
000050 06 ae d7 3c 2c d4 38 bc 05 e4 e6 3c 5e 11 2b be
       0.026328098 -0.0112810545 0.0281849 -0.16705844
000060 0d e6 ca bd da 1b 14 be e2 81 8b 3d e2 f1 8c be
       -0.0990716 -0.1446375 0.068118826 -0.27528292
000070 dc d3 55 bd 94 01 2c 3d f8 e3 16 3e fc 3e 1d be
       -0.052203998 0.041993693 0.147354 -0.15356058

context_transformer_1/bottleneck_input/norm/add f4 [32]
000000 93 34 0a 3e 75 fb 34 bd c0 a7 e7 b9 42 e6 77 bd
       0.13496618 -0.04418512 -0.00044184737 -0.060522325
000010 2f a3 9e 3d 54 b9 fd bd 5b 46 03 be 8a a3 3d 3e
       0.077459686 -0.12388864 -0.12819807 0.18519416
000020 df 84 69 bd ba 41 7d be 68 fa 70 3e 40 ed 19 3d
       -0.05701148 -0.24732104 0.23533022 0.037579775
000030 d0 2f 3a bd cc f2 b0 3c 17 d9 5a bd 83 c9 8a bd
       -0.045455754 0.02160015 -0.05342969 -0.067767166
000040 7a 60 c2 bd 38 2a dd 3e ae db a3 bd 0e 81 f3 bd
       -0.09491058 0.43196273 -0.08000885 -0.118898496
000050 34 b5 d0 bd 1e cc 60 3d 8c a8 98 bd ca e0 02 be
       -0.10190812 0.05488216 -0.07454023 -0.12781063
000060 30 12 c7 bd fc 75 8f bc dc 05 38 be f9 cb f5 bd
       -0.09720266 -0.017512314 -0.17970985 -0.12001795
000070 e2 b1 e1 3d f2 61 7e bc 86 77 fe bd 39 cd 2a 3d
       0.110202566 -0.015526282 -0.12425141 0.04169962

mention_transformer_0/bottleneck_input/norm/add f4 [32]
000000 02 bb 97 3d 13 bf 51 be 3a e0 39 bd a2 bb 9a bd
       0.07408716 -0.20483045 -0.045379855 -0.07555319
000010 22 4c 1b 3e 08 96 b3 bd 0b f9 42 3e fc c5 48 be
       0.15165761 -0.087688506 0.19040315 -0.19606775
000020 00 5d 4a be b4 87 1e bc 96 3b 2a 3e da ee 61 3e
       -0.19762039 -0.009675909 0.16624293 0.22063771
000030 2e 81 2e be 04 c6 9d bd 06 eb 5e bd 44 78 11 3b
       -0.17041466 -0.07703784 -0.054423355 0.0022196928
000040 36 a2 5c bc 6c f7 e3 bd ce dd 9d bd 98 28 76 bd
       -0.0134664085 -0.11131176 -0.077083215 -0.060097307
000050 02 8b d0 3d 4a 79 65 bc af ef 16 3e fb 1d a0 3e
       0.10182764 -0.014005968 0.1473987 0.31272873
000060 3d 6d fc bc 1e 08 9b 3d b8 57 1a be 52 ba 13 be
       -0.030813808 0.075699076 -0.15072525 -0.14426544
000070 66 44 86 3e 9d e5 dd 3e a0 62 bb 3d f6 7a ed 3d
       0.2622406 0.43339244 0.091496706 0.115957186

mention_transformer_1/bottleneck_input/norm/add f4 [32]
000000 3a 2c d1 bd 69 15 87 3e 27 90 c7 3d ae 46 1b bd
       -0.10213514 0.26383522 0.09744292 -0.037909202
000010 c2 92 0d be 72 50 2e 3e b2 db a5 3b 96 f1 d6 3e
       -0.13825515 0.17022875 0.00506159 0.4198119
000020 ce af 27 bd fc 0f ce 3d bc 62 41 be 60 16 28 3b
       -0.040939145 0.100616425 -0.1888532 0.0025648102
000030 9a 80 86 be da 02 2a 3e 2c e8 12 bd ad 6b f8 bd
       -0.2626999 0.1660265 -0.035865948 -0.121299125
000040 dc 74 30 3e ce 77 26 3e d6 a4 94 3e 32 49 39 be
       0.17232078 0.1625664 0.2903201 -0.18094328
000050 fa 7a d1 be b5 14 04 3f 90 cb cd 3d a4 db 7a 3e
       -0.40914136 0.51594096 0.10048592 0.24497849
000060 58 0d a9 bd 6c 95 f9 bd af a7 04 be 8a 32 a0 3e
       -0.08254498 -0.12186703 -0.12954591 0.31288558
000070 24 7b 2d bc 30 28 54 3c ee 6e f6 bc f8 f2 31 bc
       -0.010588441 0.012949035 -0.030082192 -0.010861151

context_transformer_0/attention/value/add;context_transformer_0/attention/value/einsum/Einsum;context_transformer_0/attention/value/add/ReadVariableOp/resource f4 [32]
000000 ed 72 88 bd 33 fe 21 bd 9b 0b 85 bd 61 5f 88 3d
       -0.06662545 -0.039549064 -0.06496354 0.06658817
000010 9f 1f 95 bd fd 9b 24 bd 50 9c b1 3c 7c 87 43 bd
       -0.07281422 -0.040187825 0.02168098 -0.04773663
000020 5c b0 53 3d 76 44 72 bd 48 e1 80 3d 96 84 1e bd
       0.05168186 -0.05914732 0.06292969 -0.038700663
000030 d4 f0 63 bd 80 2e e5 bb cd 4c f7 bc 2f 3c 2b bd
       -0.055649593 -0.0069940686 -0.030187989 -0.041805442
000040 67 10 fe 3c d8 e3 34 bd 81 7f d9 bb ba d1 e8 3c
       0.03101368 -0.0441626 -0.006637514 0.028420318
000050 da 51 64 bd 3b 40 13 3d 95 1f 76 3d fa 40 1a bd
       -0.055742122 0.035949927 0.060088713 -0.037659623
000060 ae e8 d6 3c 24 c2 1a 3d b4 16 5a 3b 43 9f 51 3d
       0.026233997 0.037782803 0.0033277692 0.051177274
000070 a3 8e 1f bd 5f 9a 57 3d 4b fe 6c bd a8 f5 1d bd
       -0.03895439 0.052637454 -0.0578597 -0.038564354

context_transformer_0/bottleneck_input/norm/mul f4 [32, 32]
000000 98 d8 cc be 8a 6c aa 3e 2b fe 27 bf f5 a9 e8 3e
       -0.40008998 0.33285934 -0.65622205 0.45442167
000010 f1 f8 73 be 8f 6a 00 bf a5 13 52 3f 2d da 4e be
       -0.23825432 -0.50162596 0.82061225 -0.20200415
000020 f9 3a 07 bf 96 37 ea 3c 7c 95 6d 3d b5 8a b5 3e
       -0.5282436 0.028590959 0.058003888 0.35457388
000030 9a 46 73 3d 45 40 b5 bb 2e 9d b1 be 7f f0 d8 be
       0.059393503 -0.005531343 -0.3469023 -0.42370984
000040 c1 ab e1 bd 95 ba 74 3e cc 4c 6c bc 84 35 b9 bd
       -0.110190876 0.238993 -0.014422607 -0.090434104
000050 19 d7 30 bd e4 a9 2f 3d ae 24 73 be 99 fb 1c 3f
       -0.043173883 0.04288663 -0.23744461 0.6132141
000060 67 59 6d be 58 24 85 be 18 02 2a be a8 e2 e2 3e
       -0.23178636 -0.2600429 -0.16602361 0.4431355
000070 6f 46 c1 3e 20 6c bd 3e 88 88 e5 3e 09 18 2e be
       0.3774905 0.36996555 0.44830728 -0.17001356
000080 07 01 37 bf 63 cd 92 be 16 98 3b be bb 2e 04 bf
       -0.7148594 -0.28672323 -0.18319735 -0.51633805
000090 dc d3 de bd 37 b9 a4 be 46 89 5b bd 8f 3d 8f be
       -0.10880253 -0.32172558 -0.05359771 -0.27976653
0000a0 85 ec 68 3e da c2 c7 3e c0 cd f3 3d be a0 1a be
       0.22746475 0.39015847 0.11904478 -0.15100381
0000b0 83 3e 80 3e e0 d2 1c 3e 40 a8 16 3e b2 7e f6 3d
       0.25047693 0.15314817 0.1471262 0.12035884
0000c0 ff 71 d1 3d 31 00 d6 bd 8f 34 07 3e 4d dd 3d 3d
       0.10226821 -0.10449255 0.13203643 0.046353627
0000d0 2c 6a 2b bf b1 7b e0 3e 56 ae 19 3f ea bc 46 be
       -0.6695888 0.4384437 0.6003164 -0.19408002
0000e0 ef 43 82 be bc 2a 6f be 88 df 1a be e3 04 f9 3e
       -0.25442454 -0.23356146 -0.15124333 0.4863654
0000f0 e6 5d 29 3e b3 22 fa 3d 9c c9 fc 3d cc ac 75 bd
       0.16539726 0.122136496 0.123431414 -0.059979245
000100 f1 bf ea bd 97 c9 58 bc b0 b0 91 3e 4d e7 d5 3c
       -0.11462391 -0.0132316565 0.28455114 0.02611127
000110 94 95 94 be 6f 2a de bd 20 fb 14 3e 5f ff 98 bd
       -0.2902037 -0.10847937 0.14548922 -0.07470583
000120 f2 e5 cf 3d 2d ac 60 be d8 c3 ce 3c 9b 3f db 3c
       0.101512805 -0.2194068 0.02523987 0.026763728
000130 96 38 1e be 70 54 9b 3e 9d 55 82 3e 64 a4 32 be
       -0.15451273 0.30337858 0.25455943 -0.17445523
000140 63 5c 88 3d 1a ef 83 bc 43 38 33 bd 75 88 92 3e
       0.06658246 -0.016105223 -0.043754827 0.28619733
000150 75 47 72 3e 0d 7f a8 be 9b 0d 96 3e 15 d5 21 3e
       0.23660071 -0.32909432 0.29307255 0.1580394
000160 29 2f d2 3d 98 5d ae bd a4 9d bc be a4 50 20 3e
       0.10262901 -0.08513945 -0.3683902 0.15655762
000170 cb 9c e7 3d 71 79 cb bc d7 57 85 bc 3c d4 68 be
       0.11309203 -0.024838181 -0.016277237 -0.22737211
000180 c9 48 14 3d b6 22 34 bd fd 35 36 be 66 4a a3 bd
       0.036202226 -0.043978415 -0.17794032 -0.07973175
000190 4a b5 db bd 13 2d bc be 7c 44 80 3e f3 c3 17 3d
       -0.107279375 -0.3675314 0.2505225 0.037052106
0001a0 2f 98 1e 3e a5 34 40 be 55 e5 b5 3d 25 a0 f4 bd
       0.15487741 -0.18770082 0.08881632 -0.11944608
0001b0 82 03 93 3e 4a 59 cc 3d e1 82 cf 3e 39 13 fc 3b
       0.28713614 0.09977968 0.4052954 0.007692721
0001c0 f0 20 9f bd 69 66 30 3e da 9c dd bc 37 36 c0 3e
       -0.07769954 0.17226566 -0.027052332 0.37541363
0001d0 33 a1 1b bf 6a 31 86 be 5f c7 b7 3e 78 5d 02 be
       -0.60792845 -0.26209575 0.35894296 -0.12730968
0001e0 55 e9 38 3e 9e f6 5f 3e 42 1b d6 be 1e 67 cc be
       0.18057759 0.2187142 -0.4181767 -0.39922422
0001f0 93 41 82 bd 43 34 8c 3e d1 59 68 3e 15 ba 42 3d
       -0.063601635 0.27383623 0.22690512 0.047540743
000200 68 03 98 bd 40 f0 e4 bc 4b 55 c2 3d f4 e4 0d be
       -0.07422525 -0.027946591 0.094889246 -0.1385687
000210 92 4e 11 3f 19 79 14 3f d2 8a 80 be 7c cf a4 3d
       0.56760514 0.5799728 -0.25105911 0.08047387
000220 85 2c 58 be 83 ab f9 bc 7d cb fd bd ef dd e5 3d
       -0.21110733 -0.030477291 -0.12392328 0.11223971
000230 aa 9f 5a 3e da 7f 88 3e b0 29 19 bf 22 fa 51 3d
       0.2134997 0.26660043 -0.59829235 0.051263936
000240 07 e4 79 3d 9b 82 8d be 38 ff 81 3b 93 cb 92 be
       0.06100848 -0.27638707 0.003967192 -0.2867094
000250 f4 40 2f bd 99 9b 2d be 76 4b de bd 03 83 02 bc
       -0.042786554 -0.16953887 -0.10854237 -0.007965806
000260 c0 59 82 3e e3 c4 87 3e 47 02 6c be c2 d0 be bd
       0.254591 0.265174 -0.23047744 -0.09317161
000270 e9 5b 38 3e 0f b7 0c 3e a9 33 80 be 4c ed d5 3a
       0.18003811 0.13741706 -0.25039414 0.001632133
000280 56 16 31 bf 0f 71 23 bf 39 9b 59 bd bd 90 00 bf
       -0.69174707 -0.6384439 -0.053126547 -0.50220853
000290 f9 b9 20 be c7 bc 37 bf d4 fc 1c 3e 5f 68 90 ba
       -0.15695943 -0.71772426 0.15330821 -0.0011017433
0002a0 51 b5 13 3e 3a cb 64 3e dc 18 31 3d a8 8e aa 3e
       0.14424635 0.2234315 0.0432366 0.33311963
0002b0 88 e2 88 3e bf 8d 10 be 6d 80 1c bf b4 3c 31 be
       0.2673533 -0.14116572 -0.6113346 -0.17308313
0002c0 eb bf 0b bf 22 cc c8 3d 7f f1 03 3e d5 71 95 3e
       -0.5458972 0.0980456 0.12885092 0.2918841
0002d0 d0 6a fb 3c 79 ee e1 bb ff 1a ac 3e 94 62 18 3e
       0.03069058 -0.0068948832 0.33614346 0.14881355
0002e0 59 df 6d 3e 71 80 81 be 3e 89 7e bb 76 c8 b6 3d
       0.23229732 -0.25293306 -0.0038839127 0.08924954
0002f0 e5 dc 49 bc 82 d1 8f 3e 33 9e eb 3c 3b 7e c2 3e
       -0.012320732 0.2808953 0.028761959 0.3798693
000300 38 72 41 bc db 3a 02 3c b9 c8 11 be 58 a1 14 3e
       -0.011807017 0.007948603 -0.14236726 0.14514673
000310 6b 03 8e bc 55 83 57 bd d3 c9 c8 3c 0b d6 19 be
       -0.017335614 -0.052615482 0.0245103 -0.15023057
000320 5a d7 c8 3d 95 c0 db 3c 51 0f bd 3d a2 7a fa 3c
       0.098067 0.026825229 0.09231437 0.030576054
000330 e4 e8 b5 3d 32 fa b9 3d ce b1 cb 3d 15 a5 ec bc
       0.08882311 0.09080924 0.09946023 -0.028887311
000340 c9 02 14 bd 2d 31 73 3c 7c a8 2b 3e ed 84 9a 3d
       -0.03613547 0.014843267 0.1676349 0.07544885
000350 93 f5 40 bd 84 b7 7f 3d 4d 34 21 3d 24 bd e8 bd
       -0.047109198 0.062430874 0.03935652 -0.11364201
000360 41 78 a7 bd 95 80 17 3e e2 74 d0 bd 78 b7 12 3d
       -0.081772335 0.14795144 -0.101785436 0.0358195
000370 4f e8 1d 3c 52 69 2c bd df 35 83 3c 45 8b 67 bd
       0.009637906 -0.04209263 0.016016899 -0.056529302
000380 8c 97 61 be 0c 65 01 3e ae 3f e2 3e 42 f8 91 be
       -0.22030467 0.12636203 0.4418921 -0.28509718
000390 c3 24 17 be a0 32 fb 3d 40 1a d9 3d ad d1 7a 3e
       -0.14760117 0.12265515 0.1060071 0.24494047
0003a0 a8 e7 7f be 72 36 97 3d 1c dc 38 3e a4 e7 7a be
       -0.24990714 0.073834315 0.18052715 -0.24502426
0003b0 fc ec 99 be 7a 18 db 3d 71 22 06 be bd 45 31 be
       -0.30063617 0.10698028 -0.13099076 -0.1731176
0003c0 e9 2c cd ba e1 7a a8 bd 4d 73 2a 3e 50 8f 1b bd
       -0.0015653643 -0.08226562 0.16645546 -0.03797847
0003d0 61 e8 ce 3e b0 d5 6c 3e 9f 17 00 be fd 3a e9 bc
       0.40411666 0.2312839 -0.1250901 -0.02847051
0003e0 18 af e8 3d d0 9c 67 3d fa 5f fb 3e 14 50 6d 3e
       0.113615215 0.056546032 0.49096662 0.23175079
0003f0 22 e0 8b be 1b 71 13 be dc 29 b6 bd 18 1d 72 3e
       -0.27319437 -0.14398615 -0.08894703 0.23643911

context_transformer_0/kq_shared_bottleneck/norm/mul;context_transformer_0/kq_shared_bottleneck/norm/add;context_transformer_0/attention/key/einsum/Einsum;context_transformer_0/attention/key/add;context_transformer_0/attention/value/einsum/Einsum;context_transformer_0/attention/key/add/ReadVariableOp/resource f4 [32]
000000 8d e3 8b bd c0 df ab 3d ff d2 d8 3c 0d 23 38 3d
       -0.06830511 0.08392286 0.026467798 0.044955302
000010 9a 7a 93 bd db 33 f2 bd 66 4a 02 3e 60 ec 15 3d
       -0.07201119 -0.11826297 0.12723693 0.036602378
000020 c8 4c 99 bd 9b 16 61 3d e2 60 87 bd 26 2b c3 3d
       -0.07485348 0.0549532 -0.06610276 0.09529714
000030 d5 96 ab 3d 1a e0 9f 3d ab bb 92 be da 52 24 3e
       0.08378378 0.07806416 -0.28658804 0.1604723
000040 38 29 c5 bd 88 5d 48 3d 7a 0f be 3d 32 3f 39 3d
       -0.096270025 0.048917323 0.09280296 0.045226283
000050 7f ed 87 bd f0 26 97 bc 91 79 5f bd dd 9c 84 bd
       -0.06637096 -0.018451184 -0.054559294 -0.06475232
000060 30 55 33 3e 8e 8e 0b 3e 49 5a fd 3d 30 ab 0c be
       0.17512965 0.13628599 0.12370736 -0.13737178
000070 49 62 1f be 7e fd 28 be f8 85 24 3e ef a5 3a 3e
       -0.15564837 -0.1650295 0.1606673 0.18227361

context_transformer_0/kq_shared_bottleneck/norm/mul;context_transformer_0/kq_shared_bottleneck/norm/add;context_transformer_0/attention/key/einsum/Einsum;context_transformer_0/attention/key/add;context_transformer_0/attention/value/einsum/Einsum;context_transformer_0/attention/key/add/ReadVariableOp/resource1 f4 [32, 32]
000000 c9 74 3c 3e 21 38 a0 bc ba 8f 4b bd 65 99 c7 bd
       0.18403925 -0.019558014 -0.049697615 -0.097460546
000010 39 dd 03 be 51 8a 9b bc d7 d5 04 bd cc c6 52 be
       -0.12877358 -0.018986853 -0.032430496 -0.20583647
000020 71 90 f9 3d ab f2 09 be 35 49 17 3e 2e 26 59 3d
       0.12185753 -0.13471477 0.1477402 0.053014927
000030 36 af 5b 3c da 2b ee bd fc 78 ad 3b 13 20 fe 3b
       0.013408473 -0.11629458 0.0052939635 0.0077552884
000040 73 09 4b 3e f0 9e 62 3d 66 a1 1c bd 74 71 8b 3d
       0.19827823 0.055327356 -0.03823986 0.06808749
000050 bd 2b a1 3d 0d cd 68 3c 63 cd 2b be b4 76 bb bc
       0.078696705 0.014209044 -0.16777568 -0.02288375
000060 44 52 84 3d 02 60 c2 bc 7e ea 62 3d 1d 55 0b 3e
       0.064610034 -0.02372742 0.05539941 0.13606687
000070 df 26 22 be b8 7e 19 3e 49 be d9 3c bf db 15 3e
       -0.1583514 0.14989746 0.026579993 0.14634608
000080 d5 7e f0 bd ee 2b 06 3d 9d 58 bd 3c 0b 29 cf 3d
       -0.11742941 0.03275674 0.023113543 0.1011525
000090 a0 19 fa 3d 32 13 63 bc 1e bf 4b bc d2 47 0b 3e
       0.12211919 -0.013859557 -0.012435703 0.13601616
0000a0 0a 44 4c be 78 c9 d1 3d b0 69 16 be fa ef 63 bd
       -0.1994783 0.10243505 -0.14688754 -0.05564878
0000b0 07 92 26 bb a4 a2 16 3e 59 af 5a 3d f7 fe a4 3d
       -0.002541663 0.1471048 0.05338988 0.08056443
0000c0 bd 0f 2e be a9 1a f0 ba a7 7b 53 bb 9d 9f 89 bd
       -0.16998191 -0.0018318492 -0.0032269747 -0.06719897
0000d0 47 c3 05 be 25 12 31 3d 85 65 d6 3d 19 30 5f 3d
       -0.13062774 0.043230195 0.10468582 0.05448923
0000e0 62 57 b2 bd d1 5d d9 3b ec 8a 09 be e1 a7 1e be
       -0.08708073 0.0066334982 -0.134319 -0.15493728
0000f0 84 e2 39 3e 0e f9 1c be 2f e3 17 3c 73 d9 29 be
       0.18152815 -0.15329382 0.009270473 -0.16586857
000100 3d f1 71 be fa a0 95 bd 83 f5 9c 3d e9 b7 c5 3d
       -0.23627181 -0.073060945 0.07664015 0.09654219
000110 ea 1a fe 3d be 34 9e 3d 7a cb 09 3e 64 43 8b 3e
       0.12407477 0.077249035 0.13456526 0.27199852
000120 f1 e1 1e be 14 10 4a 3e 7a 8b 7d be f3 e2 09 be
       -0.15515877 0.19732696 -0.24760237 -0.1346548
000130 88 f2 df bd 4e 00 b7 3d 45 bd d0 bd e6 d8 e6 bd
       -0.10934931 0.08935605 -0.1019235 -0.11271839
000140 23 71 7b be 8a 73 4e be f3 00 1b 3e d3 c3 99 bd
       -0.24554877 -0.20161262 0.15137081 -0.07508054
000150 c9 fb 26 bd 54 01 a4 bd e2 57 65 3e 36 97 7f bd
       -0.040767465 -0.08008066 0.22396806 -0.062400065
000160 df d2 91 bc 6e 96 e1 3d dc d2 7d 3d fe 9a 4a bd
       -0.017800746 0.1101502 0.06196867 -0.04946422
000170 12 95 06 3e ac 27 43 be 7a d7 f0 bd 52 ae 3f be
       0.13142803 -0.19058102 -0.11759849 -0.18718842
000180 8f 84 88 be 6e 38 b2 bd 4d f7 ba 3d 97 ff b8 3d
       -0.26663634 -0.08702169 0.091292 0.09033125
000190 e7 cb 22 3e 81 40 92 3d 8c 7c de 3d 46 b1 90 3e
       0.15898095 0.071412094 0.10863599 0.2826025
0001a0 fd ed 2d be cd f2 2d 3e 5e 30 65 be 75 38 1c be
       -0.16985317 0.16987152 -0.22381732 -0.15255912
0001b0 bf ab a7 bd 9c 47 b4 3d 13 2c 28 bd 5b e2 cd bd
       -0.08187055 0.08802721 -0.041057657 -0.100529395
0001c0 72 06 81 be 48 f6 25 be b0 eb 0a 3e 8b 44 bc bd
       -0.2520023 -0.1620723 0.1356647 -0.09192761
0001d0 67 1a 17 bd 9d 12 8a bd 7e 70 54 3e 36 f1 ed bc
       -0.036890414 -0.067418315 0.20746037 -0.029045682
0001e0 b0 0c 2b bc 25 46 f1 3d a4 85 87 3c 19 91 ce bd
       -0.010440037 0.11780957 0.016543217 -0.10086269
0001f0 54 d8 1f 3e c8 bb 3b be 48 8b 0a be ec 57 5b be
       0.15609866 -0.18333352 -0.13529694 -0.21420258
000200 e0 e2 3f 3e e0 9a e5 3c 97 ea 0d bd a6 2b a0 bd
       0.1873889 0.028027952 -0.03464755 -0.07820825
000210 7e b4 32 be d3 89 33 bc 8b a2 62 bd 92 47 4c be
       -0.17451665 -0.010958153 -0.055330794 -0.19949177
000220 49 ce 11 3e 40 50 04 be 57 e8 38 3e 66 51 d0 3d
       0.14238848 -0.12921238 0.1805738 0.101717755
000230 fd c1 08 3d 60 44 c9 bd 98 ec 17 3b 0b f8 dc 3c
       0.033388127 -0.098274946 0.0023181792 0.026973745
000240 55 98 6c 3e 89 89 b9 3d 04 70 9d bd a0 b4 d5 3d
       0.23104985 0.09059436 -0.07687381 0.10434842
000250 b2 bc a4 3d f1 3d 5c 3c 5e 18 43 be b7 f5 6f bc
       0.08043803 0.013442502 -0.19052264 -0.014645985
000260 28 6e aa 3d d5 06 56 bc 2f 29 4f 3d c4 46 25 3e
       0.08321792 -0.013063152 0.050576385 0.16140276
000270 b2 37 26 be 6b d6 27 3e 9f 64 79 3d 8c 10 19 3e
       -0.16232184 0.16390388 0.060886975 0.14947718
000280 83 9a 0c 3e 2c db a3 bd ac 35 26 bd 29 5d 00 be
       0.13730817 -0.08000788 -0.04057853 -0.12535538
000290 45 9c 4c be d4 d8 01 3d 52 ed 0c 3d 89 4b 3b be
       -0.19981487 0.031700924 0.034406014 -0.18290533
0002a0 6c 89 3a 3e 76 5b a4 bd 9e 52 19 3e 4b 79 4e 3d
       0.18216485 -0.08025257 0.14972922 0.050408643
0002b0 27 55 af 3b 06 2f 05 be f3 25 9f bd f1 5c cc bd
       0.005350727 -0.1300622 -0.0777091 -0.09978665
0002c0 4d 85 03 3e 04 07 00 3d a6 2c 2e 3c 53 e3 d5 3d
       0.12843819 0.03125669 0.010630762 0.10443749
0002d0 a3 18 fc 3d db c9 9b bd 3a 3b 15 be 8b 46 de bd
       0.123093866 -0.0760686 -0.14573374 -0.10853299
0002e0 dd 95 f5 3d 97 db 63 3d 13 05 22 3e 84 31 32 3e
       0.11991475 0.05562934 0.15822248 0.17401701
0002f0 eb 5b 82 be 65 73 25 3e 1c e8 83 bc b2 09 33 3e
       -0.25460753 0.16157301 -0.01610189 0.17484167
000300 70 ed d5 3d d5 52 12 3d 7c 2c 29 bd f4 c3 aa bd
       0.10445678 0.035723526 -0.04130219 -0.08338156
000310 35 43 ac 3e 5f 6c 8e 39 7c 5f 07 bc 5c 90 9b 3c
       0.33645025 0.00027165093 -0.008262511 0.018989734
000320 c5 f3 1f be f9 b5 f3 bc 4d 07 47 3d 23 1d bf 3d
       -0.15620334 -0.029749857 0.048590947 0.09331729
000330 3e 3d c3 3d 69 86 4a 3f a1 e7 4d 3e 7d ff a3 3d
       0.095331654 0.79111344 0.2010789 0.08007715
000340 70 5a 4a b9 c2 d0 81 3c c8 91 00 bd 9f fb 12 3e
       -0.00019297912 0.015846614 -0.031389028 0.14353798
000350 21 dd 16 bd 84 6d 90 3c 32 2c 89 bc eb 07 6c 3d
       -0.03683198 0.017630346 -0.016744707 0.05762474
000360 0f f6 a5 bc d9 52 03 bd 8b 59 d0 3c 91 24 12 bf
       -0.020258931 -0.03206143 0.025433322 -0.57087046
000370 9e 8c 08 3d 58 3e f3 3e 86 e2 92 3d 8c 2a b4 3d
       0.033337228 0.47508502 0.07172112 0.08797178
000380 96 71 5b be c0 a8 99 bd 1a 01 29 3d 80 67 9f 3d
       -0.21430048 -0.0750289 0.041260816 0.07783413
000390 61 f0 1c 3e 63 ad b5 3d 79 82 b6 3d d7 4f 89 3e
       0.15326072 0.088709615 0.089116044 0.26818725
0003a0 cd dc 16 be 2d 1c 54 3e e6 98 72 be 8b 44 05 be
       -0.14732666 0.20713873 -0.23691139 -0.13014428
0003b0 c2 e2 9d bd d4 c7 de 3d d5 eb a9 bd ab c0 ae bd
       -0.07709266 0.10877958 -0.082969345 -0.08532842
0003c0 17 71 77 be d1 0e 1a be 4b ed d8 3d 5c d1 c9 bd
       -0.24164234 -0.15044715 0.10592135 -0.09854385
0003d0 f4 13 05 bd 02 ec be bd de 23 66 3e 71 80 63 bd
       -0.032489732 -0.09322359 0.2247462 -0.055542413
0003e0 37 2f 16 bd cb 1d 01 3e d7 eb 6a 3d 70 67 ed bd
       -0.03666612 0.12609021 0.05735382 -0.11591995
0003f0 0e b6 08 3e 96 bd 17 be 81 31 06 be 8f 5d 44 be
       0.13350698 -0.14818415 -0.13104822 -0.19176315

context_transformer_0/kq_shared_bottleneck/norm/mul;context_transformer_0/kq_shared_bottleneck/norm/add;context_transformer_0/attention/query/einsum/Einsum;context_transformer_0/attention/query/add;context_transformer_0/attention/value/einsum/Einsum;context_transformer_0/attention/query/add/ReadVariableOp/resource;context_transformer_0/attention/Mul;context_transformer_0/attention/Mul/y f4 [32]
000000 1e 12 1c 3d ac 7f f7 bc 3a 6a 61 bd 05 7d 78 bd
       0.038103215 -0.030212246 -0.055032946 -0.060666103
000010 66 9d 66 3d 22 22 b1 3c 83 77 1b be fe 40 8e bd
       0.05630245 0.021622721 -0.15182309 -0.0694599
000020 02 7a 04 3e 56 60 01 be 63 be f6 3d 3c ac d5 bd
       0.12937167 -0.12634405 0.12048032 -0.10433242
000030 4b 95 bc bd eb d3 dc bd 82 ff 73 3e 3c bb a1 be
       -0.09208163 -0.10782608 0.23827937 -0.3158816
000040 a6 f8 c8 bc 87 0d 61 3e fe 82 05 3d c8 92 0a 3e
       -0.024532627 0.21977817 0.032595627 0.13532555
000050 41 c9 2b be cc c8 bc 3d b9 53 65 be 48 ba 11 bd
       -0.16775991 0.092179865 -0.22395219 -0.035578042
000060 23 c5 a4 3d cf 5a 5c 3d 07 1c d7 3d 66 71 19 bd
       0.08045413 0.05379754 0.10503393 -0.03746166
000070 ae 99 72 bd 8c 99 75 bd 55 14 92 3d 0b e4 9e 3d
       -0.05922859 -0.059960887 0.07132784 0.077583395

context_transformer_0/kq_shared_bottleneck/norm/mul;context_transformer_0/kq_shared_bottleneck/norm/add;context_transformer_0/attention/query/einsum/Einsum;context_transformer_0/attention/query/add;context_transformer_0/attention/value/einsum/Einsum;context_transformer_0/attention/query/add/ReadVariableOp/resource;context_transformer_0/attention/Mul;context_transformer_0/attention/Mul/y1 f4 [32, 32]
000000 9f 6f 5c 39 04 89 8f bb 68 74 9b bd dd 97 0f bd
       0.00021022417 -0.004380347 -0.07590562 -0.035056937
000010 f8 c1 e4 bc e8 a5 e1 bb 5a 6b bb bb a8 57 a8 bb
       -0.027924523 -0.0068862326 -0.0057195844 -0.0051374026
000020 b3 7b 58 3d 6c 3a 73 3b 94 61 4a 3c f8 e9 6f 3c
       0.052852344 0.003711368 0.012352366 0.014643185
000030 74 72 01 3b ab 31 bc 3c 45 55 82 3c 5c a9 35 bc
       0.0019752057 0.022972902 0.0159098 -0.011087742
000040 96 4b 18 3c 15 8d b3 b9 2a e3 a4 bb aa 62 a7 bd
       0.009295365 -0.00034246655 -0.005031963 -0.081731156
000050 2c 3b 9d 3c 9c f3 6c bc 59 d6 2d bd a8 d5 dd bb
       0.019193254 -0.014462378 -0.042440746 -0.0067698546
000060 1f c4 71 bc e1 be 8c 3c 58 3e 1f 3d 99 1c 27 3d
       -0.014756232 0.017180862 0.038877815 0.040798757
000070 50 0e bd bd 2d da 00 be 4a be 01 bc 96 70 ca 3c
       -0.092312455 -0.12583227 -0.007918904 0.024711888
000080 b6 da 42 bb 5c 30 2a 3c f5 86 a5 3d a3 1f 87 3d
       -0.0029732413 0.010387506 0.08082382 0.06597831
000090 51 27 c4 3c c7 d6 27 3c 75 0e 05 bc 58 ab c5 ba
       0.023944529 0.010244078 -0.008121123 -0.0015080972
0000a0 fd f2 9c bc fc d8 c3 bc 79 e5 aa bc 78 10 99 3a
       -0.019158835 -0.023907177 -0.020861374 0.0011677882
0000b0 b3 3e cc 3c d9 c7 58 bd db 7f 1b bd 1b f1 d2 3c
       0.024932241 -0.052924965 -0.03796373 0.025749734
0000c0 a1 e4 92 bb da e0 16 3c 83 c8 63 3c d8 69 b6 3d
       -0.004482821 0.009208882 0.013902786 0.08906907
0000d0 89 54 44 bc 02 19 8e 3a 1d ae cc 3c b4 75 4a 3c
       -0.011983045 0.0010841193 0.024985367 0.012357164
0000e0 85 06 ab 3c 2e 89 aa 3b 7f a2 e6 bc 52 b0 6e 3b
       0.020877132 0.0052043414 -0.028153656 0.0036421013
0000f0 b0 82 ae 3d fb 23 b4 3d 0f 6c 93 bb af 6b ca bc
       0.085210204 0.08795925 -0.0044989656 -0.02470955
000100 19 de 39 3c 6b a4 cf 3c 98 ed 00 3d ec 20 c2 bb
       0.011344456 0.025346955 0.031476587 -0.0059243347
000110 d4 70 4a 3d d6 8f b5 ba 38 49 8e bc cf 64 fd ba
       0.049424008 -0.001385207 -0.017368898 -0.0019332411
000120 21 ae c3 bd 4a 06 87 3a b9 74 94 bc c9 93 90 38
       -0.09554697 0.0010301557 -0.018122064 6.893982e-05
000130 95 0b 94 3b a2 0e 70 3d ba ce cb 3c c2 72 32 3d
       0.0045179822 0.058607705 0.024878848 0.043566473
000140 00 5e fc bb 88 5e e2 3c e3 61 4d bc a8 78 b1 3d
       -0.0077016354 0.027632967 -0.012535545 0.086655915
000150 ad a3 4f bd 74 65 9f 3c b8 87 39 3d 95 51 a8 3c
       -0.050693203 0.019457556 0.045295447 0.020546714
000160 1c 7c 42 3b a4 36 cb bc ad 31 66 bd 2d 46 c3 bd
       0.0029676026 -0.024806328 -0.05619972 -0.09534869
000170 09 b4 07 3e c8 56 23 3e 18 6f 08 3d cf 00 17 bd
       0.13252272 0.15951073 0.033309072 -0.036866006
000180 12 e8 1c bc e0 54 cb 3c f4 70 23 3d cf e8 5d 3c
       -0.009576814 0.024820745 0.039902642 0.013544275
000190 a1 d3 10 3d 7b 1a 8f bb 8f 28 25 bc a1 1a ab bb
       0.035358075 -0.0043671704 -0.010080471 -0.0052216803
0001a0 15 9e a8 bd d6 95 72 39 ef 99 bb bc e8 21 02 3c
       -0.08233277 0.00023134737 -0.02290055 0.007942654
0001b0 6a ae be 3a c3 72 56 3d 55 3e 43 3c c8 ad 1e 3d
       0.0014547829 0.05235554 0.011916717 0.03873995
0001c0 3e b6 03 bc 94 6b 06 3d 74 34 c4 bc 1f 10 b7 3d
       -0.008039055 0.03281744 -0.023950793 0.08938622
0001d0 b1 b2 41 bd 0b 77 02 3d e0 bc 59 3d fc d7 17 3c
       -0.047289554 0.03185181 0.05315864 0.009267803
0001e0 e6 b0 2d 3b dd a3 17 bd e9 2d 58 bd 74 db 93 bd
       0.0026503145 -0.037021507 -0.05277816 -0.07219592
0001f0 c9 18 0f 3e 87 0f 22 3e 56 bf e6 3c 35 aa 21 bd
       0.13974299 0.15826236 0.028167408 -0.039468963
000200 b7 9c e8 3b 74 90 4e ba 50 36 95 bd a2 8f e4 bc
       0.00709876 -0.00078798016 -0.0728575 -0.02790052
000210 70 22 95 bc c6 3e 18 bb 24 d3 b2 3a 15 62 02 3c
       -0.018204898 -0.0023230775 0.0013643247 0.007957955
000220 9b 00 67 3d e5 d8 8b 3b 1b 31 9e 3c 2c 78 04 3c
       0.05639706 0.004267799 0.019310525 0.008085292
000230 42 f4 cc 3b 44 46 bc 3b b2 04 c7 3c 09 9b 61 bc
       0.0062547037 0.005745681 0.024294231 -0.013769873
000240 53 5e 1f 3c 69 dd 90 bc 80 ff b9 3b ff 5b c0 bd
       0.0097270785 -0.017683702 0.00567621 -0.09392547
000250 43 6a fe 3c 30 3d 16 bc b6 0d f3 bc ed b0 ea bb
       0.031056529 -0.009169862 -0.029669624 -0.0071622045
000260 32 e5 cc bc 30 f0 c8 3c 78 d5 24 3d 8f 4c 00 3d
       -0.025011633 0.024528593 0.040242642 0.031323012
000270 0d f0 e3 bd 17 e4 0f be 74 0d 9c bb 5b 13 ce 3c
       -0.111297704 -0.14051853 -0.004762346 0.025155714
000280 38 cf 21 bc a6 8c a4 bc 6c af e8 bd 43 a2 e9 bd
       -0.009876065 -0.020086598 -0.11361584 -0.11407902
000290 1e a6 ec bc 35 83 8a bc 9a 00 1b bc 25 6a 36 bc
       -0.028887805 -0.016908268 -0.009460593 -0.011133705
0002a0 40 53 99 3c 7b e4 63 3c 39 a0 a5 3c cf 88 7e 3c
       0.018716455 0.013909454 0.020218002 0.015535547
0002b0 fe d0 8c bc 5b f9 61 3d a6 8c 4e 3d 7d a0 b6 bc
       -0.017189499 0.055169445 0.0504271 -0.022293324
0002c0 7f 35 c3 bb 91 74 9e 3b 05 2d fd bb b5 ae 8b bd
       -0.005957305 0.004835673 -0.007726314 -0.06820432
0002d0 f4 a2 f9 3c 1d 2c d4 bb 3a a7 ea bc 31 73 a5 ba
       0.03047321 -0.0064749853 -0.028644193 -0.0012622831
0002e0 1d ad f9 bc 67 f2 9e 3c 48 6c fe 3c 95 5d cd bb
       -0.030478055 0.019402696 0.031057492 -0.0062672594
0002f0 37 6e a7 bd bc 3b 77 bd e9 45 90 3b 3d 61 38 3c
       -0.08175319 -0.0603597 0.004402865 0.011253652
000300 b0 3e 3e bd 8c 21 ff bc db 60 f2 3d d6 9e d3 bc
       -0.046446502 -0.031143926 0.1183488 -0.025832575
000310 f1 6b e6 bd 6e 8b bd 3d 07 e4 86 3d 9c 49 57 3d
       -0.11251057 0.0925511 0.065864615 0.052560434
000320 0b 93 88 3d 4b 0b e1 3c 05 8b 01 bd 0c e9 1b bd
       0.06668671 0.027471205 -0.03162672 -0.038064048
000330 a5 21 56 bd 9b ec d9 bd ca 53 aa bd 51 f9 2e bd
       -0.05227818 -0.10640832 -0.08316763 -0.042718235
000340 b2 e0 51 bd 0c 96 c6 bc 3b fa 0c 3d f5 67 3e 3d
       -0.051239677 -0.02424147 0.034418326 0.04648586
000350 c8 b0 8a 3c b3 4a 34 bd 39 de bf 3b d3 bc ca bd
       0.016929999 -0.04401655 0.0058553484 -0.098992966
000360 5d 3a c3 3d 3d d7 f0 3c 5b 65 c6 3c 02 21 0f 3e
       0.09532616 0.029399509 0.024218252 0.13977435
000370 1d e2 d4 bd 7b 74 52 3d fc b5 3d bd 1f a1 76 bd
       -0.1039469 0.051380616 -0.046316132 -0.06021225
000380 6b 13 77 3c 65 29 8c 3c 5c 68 18 3d 2d e3 2f bc
       0.015080313 0.017109582 0.0372089 -0.010735315
000390 d5 bc 16 3d 42 74 84 3a 20 fb 3a bc 91 7c ed 3a
       0.036801178 0.0010105448 -0.011412412 0.0018118789
0003a0 c0 45 b7 bd 89 37 d5 bb b6 9e 85 bc f7 f5 26 bb
       -0.08948851 -0.0065068644 -0.01631103 -0.0025476196
0003b0 22 a5 c9 bb 3e 72 16 3d 2f db 7a 3c 0c 07 12 3d
       -0.0061537186 0.036730044 0.0153110465 0.03565125
0003c0 80 65 73 bc 53 16 bf 3c c6 07 85 bc b9 5f b3 3d
       -0.014855742 0.023326075 -0.016239058 0.08758492
0003d0 93 82 58 bd 09 84 93 3c 0b 9e 48 3d 00 b6 f6 3b
       -0.0528589 0.018007295 0.048978847 0.0075290203
0003e0 7a d0 50 3c ac f0 e5 bc 82 e0 3f bd 59 80 88 bd
       0.012745017 -0.028068863 -0.046844967 -0.066651054
0003f0 0b b5 01 3e 15 e6 2a 3e b9 82 f2 3c a4 ec fe bc
       0.12666719 0.16689332 0.029603349 -0.031118698

context_transformer_0/ffn_layer_0/intermediate_dense/einsum/Einsum;context_transformer_0/ffn_layer_0/intermediate_dense/Relu;context_transformer_0/ffn_layer_0/intermediate_dense/add f4 [32]
000000 0d e7 01 bf 52 5b 37 be b7 de 80 be b9 81 bb bd
       -0.5074318 -0.1790593 -0.25169918 -0.09155602
000010 7c 41 92 be 55 a0 77 bd 11 c7 05 be 1a bc 82 be
       -0.28565586 -0.06045564 -0.13064219 -0.25534135
000020 90 b7 13 3b 3d 2d c3 be c1 99 cc be 1b bf fa be
       0.0022539832 -0.38120452 -0.39961055 -0.48973927
000030 37 9d ea be f9 56 cb be 39 8a 8f be c4 90 a8 be
       -0.4582307 -0.39714792 -0.28035143 -0.32922947
000040 0a fd c8 be 00 5e 76 bd f7 cc d6 be 76 b2 97 be
       -0.39255553 -0.06014824 -0.4195325 -0.29628342
000050 9e 82 c7 be 69 1e 7c be 36 59 d9 be e2 c4 87 be
       -0.3896684 -0.24620976 -0.42450875 -0.26517397
000060 ca 62 0e bf 77 99 d9 be 4c 59 a7 bd 83 a5 d0 be
       -0.5561949 -0.42499897 -0.08171329 -0.40751275
000070 42 5c cf be 6f ba 6a be aa 88 d9 be 66 4c 97 be
       -0.40500075 -0.22922681 -0.4248708 -0.29550475

context_transformer_0/attention/norm/mul;context_transformer_0/attention/norm/add;context_transformer_0/ffn_layer_0/intermediate_dense/einsum/Einsum;context_transformer_0/ffn_layer_0/intermediate_dense/Relu;context_transformer_0/ffn_layer_0/intermediate_dense/add f4 [32, 32]
000000 dd 6e 5c 3d 18 97 4a 3d 3e 68 af 3d 21 74 04 3d
       0.053816665 0.0494605 0.085648045 0.03233731
000010 0b 07 99 bd a6 d7 c5 be ca 15 12 bd 68 ef 04 be
       -0.074720465 -0.3864109 -0.03566531 -0.12981951
000020 ff 2d 9c 3d 12 d8 a0 bb b0 7b 4b 3e e1 19 02 3e
       0.076259606 -0.00490857 0.19871402 0.12705185
000030 2e 99 84 3e 0f 97 af bb e8 53 5a 3d 9f 18 17 be
       0.25898117 -0.0053585838 0.053302675 -0.14755486
000040 9b da 9c 3d c5 dc 96 3e 62 f6 82 bd f6 02 29 be
       0.07658883 0.2946531 -0.0639465 -0.16505036
000050 71 c9 35 bd 0e 41 fa bd bd bc 26 3c 20 d9 05 3e
       -0.044381563 -0.122194394 0.010176835 0.13071108
000060 0e 0c 5c 3c 7e f6 52 3e c0 bc 56 3b 74 f4 c7 3e
       0.013430608 0.20601842 0.0032766312 0.3905369
000070 06 de 36 3e 7c a3 c7 bd 9e e3 9a bc c2 67 52 3e
       0.17858133 -0.09747979 -0.018907364 0.20547393
000080 c0 96 d2 bc 4d f6 c3 3d f3 40 d5 3d d3 0a aa 3e
       -0.025706649 0.095684625 0.10412779 0.33211383
000090 44 ea a2 bd 8a d7 82 bd 43 27 37 bd 6a 31 53 bd
       -0.07954839 -0.06388767 -0.044715177 -0.051560797
0000a0 27 a2 83 be 8d f5 b2 3b 39 65 2a 3e 6b 88 85 3c
       -0.2570965 0.005461401 0.16640176 0.0163004
0000b0 6e 4a 7e 3c ea 2a d2 be 50 6a 9e 3e 0b da dd 3d
       0.015520675 -0.41048366 0.30940485 0.10832604
0000c0 ca 78 6c bd fe b5 03 be 73 d3 a0 bc f3 bf 6a 3d
       -0.05773238 -0.12862393 -0.019632077 0.057311963
0000d0 47 45 8d 3e 0b c7 14 3e 28 a6 94 3c c3 7a 26 3e
       0.27591917 0.14529054 0.018145636 0.16257767
0000e0 e5 8a 20 bd 6c 30 77 bd 69 e5 73 3e e4 4e cd 3e
       -0.03919496 -0.060348913 0.23817982 0.4009925
0000f0 3d 95 86 3e 0e 38 b2 bb 57 f4 95 be 7b f1 1c 3e
       0.26285735 -0.005438811 -0.2928798 0.15326492
000100 fc ac ee be 4e 80 9d bd 96 7f 82 bd cf ee 9e be
       -0.46616352 -0.07690488 -0.06371991 -0.31041571
000110 d2 b3 ba 3e e8 ed 57 be 4d 95 3c be ad df 7d bc
       0.36465317 -0.21086848 -0.18416329 -0.015495223
000120 dc 5a 61 be ce 21 07 3d 36 30 00 be 81 1a 84 be
       -0.22007316 0.032991223 -0.12518391 -0.2580147
000130 95 58 d5 bd 41 ba fc bc ad 8d e2 bd 3e 4b d8 3d
       -0.10417286 -0.030850532 -0.11062179 0.10561226
000140 5f 48 19 3d 0a 24 cd 3e 01 9d 05 3e 95 b4 0f bd
       0.037422534 0.40066558 0.13048173 -0.035084326
000150 a2 f5 5e be 7f b6 8e bd 6e b3 75 be 4b d2 e5 3d
       -0.21773389 -0.06968402 -0.23994228 0.11221751
000160 9d ea d9 3d 59 77 7f bc a9 67 6d be 60 7c 81 bc
       0.10640452 -0.01559242 -0.23184074 -0.015806377
000170 6a 5d 90 3d 25 6e 03 3d af f9 22 3c 48 56 45 3d
       0.07049067 0.032087464 0.0099472245 0.048177987
000180 e5 57 fb 3d b8 2c ca bd e5 aa 4d bc 41 a1 4b 3e
       0.12272624 -0.09871811 -0.012552951 0.19885732
000190 1b 6f aa bd ea 75 ad bd 28 e2 56 3c 98 7f 22 be
       -0.08321973 -0.08469756 0.013115443 -0.15868986
0001a0 11 02 0c be 40 96 1b 3c d4 2b 90 3d 27 da 28 3e
       -0.13672663 0.009496272 0.070396096 0.16489469
0001b0 d8 ff 67 3e 63 d7 b1 be 45 99 06 be 8e 4e 01 bd
       0.2265619 -0.3473464 -0.13144405 -0.031569056
0001c0 c4 ca 12 3e bf 8c 03 be 64 56 7c bd 1d 66 9a 3d
       0.14335161 -0.12846659 -0.061605826 0.07539008
0001d0 a5 71 1c 3e e0 9b 59 3d 5a 73 55 3e 88 b5 d5 3d
       0.15277727 0.05312717 0.20844784 0.10435015
0001e0 aa b6 ed 3c 5e ea 00 3d b2 4d e8 3c 79 38 56 3e
       0.029017765 0.03147351 0.02835736 0.2091998
0001f0 e9 86 af 3d 25 a5 17 be 0a 58 68 be fc 6e 86 3e
       0.08570654 -0.14809091 -0.22689834 0.2625655
000200 ae da ec 3d 12 49 a9 bd 2a 7d 09 bd da 10 1f 3e
       0.11565147 -0.0826589 -0.03356663 0.15533772
000210 1b 11 53 bd 1e 22 e6 bd ac 12 6a be e1 89 da 3d
       -0.051529985 -0.11236976 -0.22858685 0.106708296
000220 32 82 3f 3d d1 22 80 3d 7a 2d 7b bc 12 97 e6 3d
       0.046755023 0.06256641 -0.015330667 0.11259283
000230 f3 d5 28 be 79 9e 0d bd 22 e0 af bd 41 d9 28 3e
       -0.16487865 -0.03457496 -0.08587672 0.16489126
000240 7b 1d 5e bb e7 b4 57 3d 07 e2 49 be 4d a5 12 bd
       -0.0033892083 0.052662756 -0.19715129 -0.035802174
000250 3c 8c 9b 3c 5f 5e ee bd bd b5 59 3d 90 a8 2c 3d
       0.018987767 -0.116390936 0.053151835 0.04215294
000260 41 85 04 be be 47 76 3d 8c 45 94 3c 2e f7 f5 3d
       -0.12941457 0.060127012 0.018099569 0.120100364
000270 9b 3a 64 be 8e 55 c6 bd c5 8c 50 bd 64 3e 88 3d
       -0.22287981 -0.09684287 -0.0509155 0.06652525
000280 c0 06 17 be 6b c3 3c 3e 90 47 96 3e 2f 96 bc 3e
       -0.14748669 0.18433921 0.29351473 0.3683333
000290 dd 38 07 be 68 55 42 3c ad eb a9 3d f4 7e e3 bd
       -0.13205285 0.011861183 0.08296905 -0.11108199
0002a0 8b 6f 14 be 9f f2 af 3d 8f be 93 3e 8b 49 84 3d
       -0.14495675 0.08591198 0.28856322 0.0645934
0002b0 62 c2 2d be be d5 82 be 7b 98 04 3f d0 fa 45 bd
       -0.16968682 -0.25553697 0.51795167 -0.048334897
0002c0 67 57 29 be db eb df 3c 98 a5 03 be 31 31 d0 3d
       -0.16537248 0.027334144 -0.12856138 0.101656325
0002d0 b6 35 6a 3e 00 c1 3a be 59 79 28 3d 01 f9 0d 3d
       0.22872052 -0.18237686 0.04113135 0.034661297
0002e0 87 d3 18 3e ac 4d 2c bd 78 12 d1 3d d4 63 09 3e
       0.14924441 -0.04206626 0.10208601 0.13416988
0002f0 68 ba 26 3d 29 16 88 3d 52 81 16 be 19 78 12 3e
       0.040705115 0.06644852 -0.1469777 0.14303626
000300 6c 2b 0b be 40 e4 8a bd 8a d5 82 3c ae 02 a0 3e
       -0.13590783 -0.067818165 0.015970964 0.31252044
000310 d7 ed c8 be d2 12 b4 be 93 64 44 bd ac e2 25 be
       -0.39243957 -0.3517061 -0.047947478 -0.1619975
000320 13 f2 ef 3d 9f a5 1d be 74 91 3c 3c d4 24 0f be
       0.11716094 -0.1539521 0.011509288 -0.13978893
000330 4b 87 dd 3e fc fc f3 bc 34 36 b6 bd 86 f9 35 bd
       0.43267283 -0.029783718 -0.08897057 -0.044427417
000340 69 8d d2 3e a5 85 fa bb f0 b7 15 be ce 71 e6 3c
       0.41123512 -0.007645326 -0.14620948 0.028130438
000350 b3 d8 8c 3d 87 72 4d 3e e4 ea a3 be 87 47 9a 3d
       0.068772696 0.2006322 -0.32015145 0.07533174
000360 c9 c2 72 3c 00 6f a8 3e 54 a9 e7 3d 8e 53 07 3e
       0.014816948 0.32897186 0.11311594 0.13215467
000370 3b fd 03 be 51 67 ff bd 60 5f aa bc 8b 88 3b 3e
       -0.12889569 -0.12470878 -0.020797431 0.18313806
000380 5d c5 bd 3d 2c 29 10 bd af 40 29 3e 78 a1 bc bd
       0.0926616 -0.035195515 0.16528581 -0.09210485
000390 a8 64 fe 3d 2d 3d cf bd 36 ed 88 bd 34 0c 91 39
       0.124215424 -0.1011909 -0.066858694 0.00027665647
0003a0 e9 9e b3 3d 14 ea 88 be 1a 82 72 bc 4f 1a 01 3d
       0.08770544 -0.26741087 -0.014801526 0.03151923
0003b0 e4 08 ea 3e 47 b9 63 3d d3 e1 b8 3d 58 75 4f ba
       0.45709908 0.055596616 0.090274476 -0.0007913909
0003c0 cb f4 a6 3d 00 f5 3d bd 4b e6 1f be 5f 54 5f 3d
       0.08152159 -0.04637623 -0.15615194 0.054523822
0003d0 93 2f 60 be 55 0a 02 bf aa 72 3a 3e 90 4f 0b 3e
       -0.21893148 -0.50797015 0.18207803 0.1360457
0003e0 c9 ed 67 3e d5 da 5c 3e 20 53 8f 3d c0 f9 1f 3e
       0.22649302 0.21567853 0.06998277 0.15622616
0003f0 23 a9 ae 3e 2a a7 a4 be 78 05 e0 3d 38 ac ac bd
       0.34113416 -0.32158786 0.10938543 -0.084312856

context_transformer_0/ffn_layer_1/intermediate_dense/einsum/Einsum;context_transformer_0/ffn_layer_1/intermediate_dense/Relu;context_transformer_0/ffn_layer_1/intermediate_dense/add f4 [32]
000000 63 fc c7 bd 1b 78 37 bd de 02 04 bd 69 81 db be
       -0.09764936 -0.044792276 -0.032229297 -0.4287217
000010 4a 1c 7b be fc 5c 0d bf 10 fb c0 be 2a 47 09 be
       -0.2452251 -0.5522001 -0.37691545 -0.13406053
000020 c9 4e a1 be 4d 97 87 be 76 20 c1 be 1f 85 b0 bd
       -0.3150542 -0.2648262 -0.37720078 -0.08619141
000030 95 e7 66 be 77 4e 14 be 80 e0 bc be e8 2e 16 be
       -0.22549279 -0.14483057 -0.3689003 -0.14666331
000040 7f 0f e7 be 0e 82 28 be a0 5f 85 3b 51 59 58 3d
       -0.4512901 -0.16455862 0.0040702373 0.052819554
000050 be bf b5 bc 29 4b 24 be 51 cd 0c be a2 df f7 3d
       -0.022186156 -0.16044296 -0.13750197 0.121032014
000060 0f cd b3 be 5a 08 b0 bd cb 01 35 be e2 09 ae 3d
       -0.35117385 -0.08595343 -0.17676465 0.08497979
000070 eb 59 e8 bd fe 25 ff 3d 64 19 5b 3e 33 36 45 be
       -0.113452755 0.12458418 0.21396405 -0.19258957

context_transformer_0/ffn_layer_0/norm/mul;context_transformer_0/ffn_layer_0/norm/add;context_transformer_0/ffn_layer_1/intermediate_dense/einsum/Einsum;context_transformer_0/ffn_layer_1/intermediate_dense/Relu;context_transformer_0/ffn_layer_1/intermediate_dense/add f4 [32, 32]
000000 ba c7 8a bd d6 58 d0 3c 6c 8d 4c be 0b cc a7 bd
       -0.06776376 0.025432985 -0.19975823 -0.08193215
000010 c9 9a f8 3d b0 d4 f4 bd 4b cf e8 bc fb 34 15 be
       0.12138898 -0.119546294 -0.028419157 -0.14570992
000020 c1 20 a4 bd 6f d8 ed bc cc 98 5b bc d2 60 fc 3d
       -0.0801406 -0.029033868 -0.013403129 0.123231545
000030 ea a2 27 3e f0 0f 25 be a5 7d 91 bc db a8 e4 3d
       0.1637074 -0.16119361 -0.017760107 0.11165019
000040 83 52 62 3d 3a b0 31 3e ab 71 51 3d e2 c0 54 bc
       0.05525447 0.17352381 0.051133793 -0.01298544
000050 51 36 fb bd 51 af 6f be fc f7 66 bd 73 5e d2 3d
       -0.122662194 -0.23406722 -0.05638884 0.10271921
000060 97 69 94 3e 08 d1 8f 3e 1a 45 84 bd e8 b3 0e 3f
       0.2898681 0.28089166 -0.064584926 0.55743265
000070 0b 6e 67 3d 99 7b ae 3d 6d 7b 94 be e3 92 8c 3d
       0.05650143 0.08519668 -0.29000416 0.06863954
000080 67 02 31 be 6d 31 2c 3b ac 3a 89 3d 31 93 ab bd
       -0.17286073 0.0026274577 0.06700644 -0.08377684
000090 78 70 e0 3d cd 1c 0b be c7 26 e9 bd 79 88 5c 3e
       0.10958952 -0.13585205 -0.11384349 0.21536435
0000a0 2d e2 cf bd 90 09 5d bc 54 93 44 3e 33 e1 69 3d
       -0.101505615 -0.013491049 0.19196826 0.057099532
0000b0 b6 f9 ee 3c 73 f5 3c be 01 11 40 3d 76 97 a6 3c
       0.029171806 -0.18453006 0.046891216 0.020335894
0000c0 af 4d 28 3d 07 0c 41 3e 30 fe f1 3b 79 1b 55 3d
       0.04108971 0.18852244 0.007385038 0.052028153
0000d0 63 08 69 3c 6d 71 e4 be f3 cb 2c be 7b a2 09 3e
       0.014223191 -0.44617787 -0.16874675 0.13440888
0000e0 80 bb 2f 3e 8e 8a 08 3e a7 25 0a bd 93 41 25 3f
       0.1716137 0.13334104 -0.033727314 0.64553183
0000f0 ec a0 ef 3d f2 4b 48 3e 3e 3e 79 be d6 fe 6a 3d
       0.11700615 0.19560221 -0.2434015 0.057371937
000100 0a 71 c7 bc 41 b6 16 3d 79 cc 1b 3e 6b 6b 8c 3c
       -0.024345893 0.036794905 0.15214719 0.017141065
000110 c8 0a 3e 3c 8c cd 24 3d 1c 15 92 bd 8f 1d 87 3e
       0.01159925 0.040235087 -0.071329325 0.2638974
000120 ed bb dc bd 56 52 a6 bc ef 26 65 3e 5f 7c 46 bb
       -0.107780315 -0.020302933 0.22378133 -0.0030286533
000130 58 86 ac bd b8 e5 75 be ba 6c 92 3e e3 f4 84 3c
       -0.084240615 -0.24013412 0.28598577 0.016230052
000140 12 bc db bd 7b fd 69 3e 33 d1 6f 3c 3e dc 62 3d
       -0.10729231 0.22850601 0.014637279 0.05538582
000150 b3 87 0c 3d 1c 36 95 be 98 6d c7 bd 7d c0 3c 3e
       0.0343091 -0.29142845 -0.097377 0.18432803
000160 44 91 50 3d 6c e3 92 3d e2 04 0e 3c 04 22 2e 3f
       0.050919786 0.071722835 0.008668156 0.68020654
000170 68 b1 11 bc 37 15 9b 3c 0e 29 9a be 74 1f f5 3d
       -0.008892395 0.018931014 -0.30109447 0.1196889
000180 0d 5f 1b 3d f4 74 07 3d 38 c1 6a 3e 24 11 ed 3d
       0.037932444 0.03307052 0.2292527 0.11575535
000190 07 c8 31 bd f3 5f a7 3d 76 ea 2b 3e ed 73 39 be
       -0.04340365 0.08172598 0.16788658 -0.18110628
0001a0 ab 1b 68 3d d3 f6 31 be a5 6e 56 3e eb 8e ce bd
       0.05666701 -0.17379312 0.20940645 -0.10085853
0001b0 fe b1 f0 3c 20 70 22 3d 6f 25 3f 3e b1 a8 89 be
       0.029381748 0.039657712 0.18666624 -0.26886514
0001c0 07 2e 96 bd 47 2a 9f 3d 18 17 9b bd dc 84 59 bc
       -0.07332998 0.07771736 -0.07572764 -0.013276305
0001d0 50 b4 3c 3e 6d d5 0b be 58 80 06 be f5 ab 7d bd
       0.18428159 -0.13655634 -0.13134897 -0.06193157
0001e0 48 66 ae bd 39 8b 88 bc 51 b0 15 3d 5c 0d 50 3d
       -0.08515602 -0.016667949 0.0365451 0.05079399
0001f0 58 73 02 be 91 b8 04 be d5 93 17 3d 7e 08 03 be
       -0.12739313 -0.12961031 0.037006218 -0.12796208
000200 11 0a 2e be e5 ed aa 3d 2b 82 81 be ad 25 99 bc
       -0.16996028 0.08346156 -0.25294623 -0.018694723
000210 e1 19 d2 bd 23 8f c2 3c 3d fa 5c bd b8 64 b9 bc
       -0.10258842 0.023749894 -0.053949583 -0.022631034
000220 79 07 16 bd 73 0d 06 3e d1 e0 75 3c e2 66 da 3d
       -0.03662822 0.13091068 0.015007214 0.106641546
000230 b7 e8 3f bc 03 fd 60 be 5c 1c d1 bd ce 20 d5 3c
       -0.011713198 -0.21971516 -0.10210487 0.026016619
000240 6a 8d 8d bd 34 9b df 3d 46 35 ee 3d 71 6b 56 be
       -0.06911738 0.109182745 0.11631255 -0.20939423
000250 fc 01 8e be 82 39 53 3e c7 66 a0 bd f0 2d 53 3e
       -0.2773589 0.20627406 -0.07832103 0.20622993
000260 07 63 1e 3e 28 2a 4f 3e 2b fd 71 3c da 42 1e 3e
       0.15467463 0.20230925 0.014769833 0.1545519
000270 95 9d ba 3c a5 ba 26 3b 34 5e b3 be db 44 82 3d
       0.02278022 0.0025440839 -0.3503281 0.063607894
000280 29 31 a1 3d 87 15 0e 3e be c7 01 bf b2 20 ba bd
       0.07870705 0.138754 -0.5069541 -0.090882674
000290 a1 25 82 bd 1c 61 d9 3c dc f5 3e bd 1d 46 bd 3c
       -0.063548334 0.026535563 -0.04662119 0.023104722
0002a0 3c 53 92 3e 2a f0 07 be c8 50 8c bd 0d cf 2c be
       0.28579128 -0.13275209 -0.06851345 -0.16875859
0002b0 c2 26 32 3d a2 1c 49 3d b3 7e b3 be cc b4 e6 bc
       0.043493994 0.049099572 -0.350576 -0.028162383
0002c0 e4 6a 39 3a 3b 3b 70 3c 47 5a bf 3e 63 26 50 bd
       0.0007073118 0.014662559 0.37373564 -0.05081786
0002d0 a5 3c 25 be 05 3b 0a 3e 34 cd 01 be 1e e8 57 3d
       -0.16136415 0.13499077 -0.12675935 0.0527116
0002e0 77 a4 da bc aa ea 23 bd d1 3f 84 bd 78 36 ba 3d
       -0.026689751 -0.040018715 -0.064574845 0.0909242
0002f0 72 9f 18 be 0a 62 a1 be 31 9b 3a bd bb 63 57 3c
       -0.14904574 -0.3152011 -0.04555816 0.013146336
000300 83 79 75 3e a1 2f 14 3d 5b 33 d1 bd 8a ac 10 bf
       0.23972134 0.036178235 -0.102148734 -0.56513274
000310 9f 53 c5 be ed 29 ba bd e7 a2 dc 3d 61 fa 85 bd
       -0.3854036 -0.09090028 0.10773259 -0.065418966
000320 29 94 2b 3e 76 c1 93 bc 62 ec 2d 3d 9d 79 07 be
       0.16755737 -0.018036585 0.04246176 -0.13229986
000330 29 79 41 3e e7 64 4b bd 4b e6 3b 3e 95 eb bf bd
       0.18893875 -0.049656775 0.18349569 -0.093711056
000340 c5 10 9c be ce bc 74 3d d7 58 10 3f 6e 31 50 3e
       -0.30481544 0.05975037 0.5638556 0.20331356
000350 ee c8 64 3e 1a ee ab 3d 27 34 f0 3d be 1d d5 bc
       0.22342274 0.08395024 0.11728697 -0.026015159
000360 e0 dc 87 bd 85 a5 6b 3d 7a 1b b2 bd 10 3c f9 3c
       -0.066339254 0.0575309 -0.08696647 0.030424148
000370 ef 51 42 3e 8a ef 98 3e 44 2d 72 bd 66 95 05 3c
       0.18976568 0.29870254 -0.0591252 0.008153295
000380 0a 37 5f be 11 a7 3e be f2 bc 5d 3b 43 8e 91 3d
       -0.2179834 -0.18618418 0.0033834544 0.071072124
000390 45 da 4c 3e bd eb fc 3d 23 a9 c0 bd 23 62 78 be
       0.20005138 0.12349651 -0.0940726 -0.24256186
0003a0 89 19 7e 3d 7c a8 93 bd 5b 05 ee 3d 42 53 35 3c
       0.06203607 -0.0720987 0.11622115 0.0110672135
0003b0 6f c0 a1 3d 48 67 80 bd 6e 31 5f be 16 7b 30 bd
       0.07898032 -0.06269699 -0.217962 -0.043086134
0003c0 08 08 15 3e 63 86 01 bd 9f fd 46 3d 73 b1 96 3d
       0.14553845 -0.0316223 0.048581716 0.073580645
0003d0 ee a2 9b be ed 73 49 3d ac 91 0b 3e 64 46 50 3e
       -0.30397743 0.04918282 0.13629788 0.20339352
0003e0 cc 9e b4 be 33 3f cd bd a2 de d1 bd cf 8f ee 3d
       -0.35277402 -0.1002182 -0.10247542 0.11648523
0003f0 8a 74 65 3e 34 b5 23 3e 5d 9b 0d be b5 09 14 3e
       0.22407737 0.15987092 -0.13828798 0.14456828

context_transformer_0/ffn_layer_2/intermediate_dense/einsum/Einsum;context_transformer_0/ffn_layer_2/intermediate_dense/Relu;context_transformer_0/ffn_layer_2/intermediate_dense/add f4 [32]
000000 c1 f7 f0 bd f0 1e bd bc f6 49 77 bd ed cf 99 3d
       -0.11766005 -0.023086041 -0.06037327 0.07510362
000010 f7 d4 f6 bd 6e 6d 20 be 29 70 7e be e1 92 95 be
       -0.120523386 -0.15666744 -0.24847473 -0.29213622
000020 d4 57 e8 bd 60 1a 59 be 1a aa a3 be b4 4b 98 be
       -0.11344877 -0.21201468 -0.31965715 -0.29745257
000030 20 8b ce bd 8e af 67 be a6 4f 8b be 16 fe 3e bd
       -0.1008513 -0.22625563 -0.27209204 -0.046629034
000040 db 17 03 3c 19 8b 3b 3c 02 be 49 3d 12 c2 94 bd
       0.008001293 0.011446738 0.04925347 -0.072635785
000050 f7 cb b2 bc 09 7c a5 be 48 d3 74 be 95 c6 b0 bc
       -0.021825774 -0.32321194 -0.23908722 -0.021579066
000060 3d e3 1f be f3 10 a1 bd a2 7f 7d bd 2d 64 7d 3b
       -0.15614028 -0.07864561 -0.0618893 0.0038664446
000070 da b9 c6 be 12 7a 3f be 8a 64 f2 3d f6 eb 24 3c
       -0.38813668 -0.1869891 0.118355826 0.010066023
